LCP_MNIST/models/mnist_module_origin.pth (torch, 347168 bytes, 10 tensors)

model.0.weight f4 [16, 1, 5, 5]
00000000: e63a 243b 03b0 623e a17b 393e 80af 65be
00000010: e779 ebbd 08f6 3c3e 5746 003e 9b0a 653e
00000020: ad78 98be 92b6 3bbe 5627 16bd f982 8d3d
00000030: 7f1e 703e 7004 0bbe 4924 8d3d 9f1e 32be
00000040: 2b5c 18be 6440 1d3e 577c 8b3d 2568 ddbc
00000050: 64c7 96bd 56f7 f03d 7c90 f83d 7a78 5f3d
00000060: f5a9 383c 32fa ab3d a2ac 803d bcd8 8e3d
00000070: 34e0 a7be 3ca3 05bd 1382 1fbd d8d2 1a3e
00000080: 0a77 85be 1e4f 1abe 9cf6 afbc 2e0b a23b
00000090: 6874 1f3e 5a4f 113e cf99 fe3d f0ca 4e3e
000000a0: a48e 4e3e f324 8d3d 990d 6f3e 9d98 65bd
000000b0: 7f9b 9b3d 1df8 0d3e 985c 5abe daa0 19bd
000000c0: ee7c 083e 2e28 fc3c dedd 5d3e d090 42bd
000000d0: ae0b 63be 63e2 653e 4cc5 f23d a639 a33c
000000e0: bcc9 8cbe 4d86 14be b1a3 7e3e 875d c6bc
000000f0: 23ad 01be 1afd b6bd 85a1 8ebe 9a52 153e
00000100: e378 7d3e eed1 c4bd 22f3 72be 529f f2bd
00000110: 9954 d13d e3af 843e f402 c33d 2ac7 15bb
00000120: 3247 3a3e 48b6 533c 4b9a b9bc 3051 76bd
00000130: ba31 733d 81de 8f3d 1aca 323e 35d4 60bc
00000140: c4c2 f63c 248e 9d3e a2f7 4f3c 2200 963d
00000150: 6e98 8c3c eeab 823e b5e7 463e 620f 2a3e
00000160: e3ba 05be 1dce fe3c 9fe1 5d3e 5b4b b13c
00000170: 5d63 8e3d 9e48 39be 4cc4 88be 97a0 f43c
00000180: d7fe c23d d586 38be 11c3 53be a251 edbd
00000190: 5d5e 473c e34e 523d 2d89 0bbd 77e3 9dbd
000001a0: b753 6c3d 24d3 f13d 7e92 093e 725b 3c3e
000001b0: 3235 023d fd16 31be 481f e4bd 2ef9 27be
000001c0: f3ea 363e 7b4d ef3d 70a7 51bc a692 3bbd
000001d0: f720 893d 2cb6 f0bd 985f 4b3d f4f9 043e
000001e0: 938e 02be a02a 0bbe 947b 443b 68d8 f03d
000001f0: eaa8 f93c f6b4 1d3e 7ba1 283e cf52 3abe
00000200: 2aa6 2cbe 1044 cf3d de3e 8e3d e627 f13b
00000210: a7f5 393e eebc 51bd 0bf5 b1bd 8915 3a3d
00000220: b30e 833e 7585 c63a 49a2 6abe d94d 3bbe
00000230: d7bc 8d3e 3dd7 523d 8359 3ebe e469 97be
00000240: 9f2d 773d de5f 79bd ea5c 4bbc f9ca 6abd
00000250: e224 efbc b488 52bb 2a5a 253e 7342 1fbe
00000260: e212 02be 9528 97bb 54ab 953e 0cd2 05bc
00000270: 96c2 ec3d d6dd 953d 219a 92bd eb9b f9bd
00000280: e120 4b3e e26c 623e caa8 ebbc c2ab a6be
00000290: 757b 003e 2245 b9bd df34 443e 1d95 c9bd
000002a0: e90d 143e 080d 1abe 5355 70be 050d 683c
000002b0: 0205 803e 8f4c 6b3d a477 c13b f76b 2ebe
000002c0: 2fea 6bbd b05b 62be 3b8c f0bc 9f42 013e
000002d0: 3851 323d e9b7 833e ece2 953e 971c 433e
000002e0: 973e 4f3d 2415 983e 5275 343e d574 5a3e
000002f0: d0dd d13d 456e 00be 40de 0dbe a2aa 56be
00000300: 1d27 9abe e6d8 293e 6a79 f13d ad7d 65be
00000310: 20cb 62be 4976 1cbe fa61 853b 03f7 473e
00000320: f450 433e 2160 8c3e 0dc6 613e dfdc ba3e
00000330: 4337 ae3e 5b0a 913e 4b84 093e ed2f 773e
00000340: e5aa 45bd 8cd2 22bd ebcb 1cbe b1cb a73c
00000350: 7cf8 06be f0a5 68be 2043 05be b760 81be
00000360: 61d5 b3be 0a14 cfbe ef55 80be ef4a 23be
00000370: 2557 edbd 30e1 0e3b 34dd 073e ba98 2a3e
00000380: f1cd 0b3e 213a febb 0c53 14be 3ff5 a43e
00000390: 004b 2b3e 7efb a83d cfdb ba3c 4923 b8bd
000003a0: 095d 7a3d 9355 003e 4143 083e eb56 43be
000003b0: ea63 4ebe 5821 4cbe 01a8 98bd 8035 c8bd
000003c0: 6ee0 acbc 299d 4fbc 5dec 53be 26c7 1b3d
000003d0: 7e32 753d 3d1b 2bbd 9129 46bd 1e81 9dbc
000003e0: d3b5 21be 3014 7f3d baf4 5abe 6f95 27be
000003f0: 30ed 983c 2082 ef3d 8690 4a3d e150 4a3c
0.002505952 0.22137456 0.18113567 -0.22430229 -0.114978604 0.18453228 0.12526833 0.22367327
-0.29779568 -0.18331364 -0.036658607 0.06909747 0.23449133 -0.13575912 0.068916865 -0.17394494
-0.1487891 0.15356594 0.06810825 -0.027027199 -0.073622495 0.117659256 0.12136933 0.054558255
0.01127099 0.0839733 0.06282927 0.069749326 -0.3278824 -0.032626376 -0.038942408 0.15119493
-0.26067382 -0.15069243 -0.021479897 0.0049451804 0.15571749 0.14190426 0.124316804 0.20194602
0.201716 0.06891813 0.23345031 -0.056053746 0.07598018 0.13864179 -0.21324384 -0.037506916
0.13328907 0.030780878 0.21666667 -0.047501385 -0.22172424 0.22449641 0.11854038 0.01992495
-0.2749766 -0.14504357 0.24867131 -0.02421452 -0.12663703 -0.08934994 -0.27857605 0.14582291
0.24753146 -0.096103534 -0.2372556 -0.11846794 0.10221214 0.2591544 0.09522048 -0.0022854307
0.18191221 0.012921877 -0.02265658 -0.06013602 0.059373595 0.07024861 0.17459908 -0.013722469
0.030122168 0.30772507 0.012693318 0.07324244 0.017162528 0.25521797 0.19424327 0.1660743
-0.13059573 0.031104142 0.21668099 0.021642378 0.06952546 -0.18094108 -0.26712263 0.029861731
0.09521263 -0.18020184 -0.2067988 -0.11587836 0.012168494 0.051344763 -0.034066368 -0.07709401
0.057697024 0.1180785 0.13434789 0.18394259 0.031789012 -0.17293926 -0.11138779 -0.16403648
0.17863064 0.116847 -0.012796268 -0.04579415 0.06695741 -0.117534965 0.049651712 0.12985975
-0.127497 -0.13590479 0.0029980885 0.11760026 0.030476052 0.15401062 0.1646785 -0.18195651
-0.16860262 0.10120404 0.06945585 0.0073594926 0.18160115 -0.051205568 -0.08689316 0.045430694
0.25597152 0.0015145974 -0.2291347 -0.18291415 0.27683136 0.0514748 -0.18588834 -0.29572976
0.060346242 -0.06088244 -0.012412289 -0.057322476 -0.029192392 -0.0032124938 0.16147676 -0.15552692
-0.12702516 -0.004612992 0.29232275 -0.008167755 0.11560552 0.073177025 -0.07158304 -0.12187942
0.19836761 0.22111848 -0.028767008 -0.32552916 0.12547095 -0.09046389 0.19160794 -0.09842894
0.14458431 -0.15044034 -0.23470049 0.01416326 0.2500382 0.05744606 0.005904155 -0.17033373
-0.05759638 -0.22105289 -0.029363742 0.1262307 0.043534487 0.2572625 0.2927469 0.19053875
0.0505968 0.2970363 0.17622879 0.2133363 0.102473855 -0.12542064 -0.13854313 -0.20963529
-0.30107966 0.16586646 0.11790736 -0.22411223 -0.22147799 -0.15279497 0.0040705176 0.19527821
0.1907385 0.2741709 0.22048207 0.36496636 0.34026536 0.28328213 0.13429372 0.24139376
-0.04825868 -0.039751574 -0.15312164 0.02048287 -0.13180727 -0.2271955 -0.13013887 -0.252691
-0.35123733 -0.40444976 -0.25065562 -0.15946554 -0.11588887 0.0021801703 0.13267976 0.16659823
0.13652779 -0.0077583943 -0.14484805 0.32218358 0.16727829 0.08251093 0.022809891 -0.08991105
0.06112388 0.12532644 0.13306905 -0.19076125 -0.20155302 -0.19934595 -0.07453919 -0.09775829
-0.02110311 -0.012671747 -0.20695634 0.03803172 0.059862606 -0.041774023 -0.048379485 -0.019226607
-0.15792017 0.06227511 -0.21382418 -0.16365598 0.018667787 0.11694741 0.049454235 0.012348385

model.0.bias f4 [16]
00000000: 4c7c 6bbe af58 1ebe de30 97bd 830c 5a3d
00000010: 203e 05bd f02c 873d 2846 6f3d 3e0b 5ebe
00000020: 1380 d3bd 3c62 c43d d6d9 bc3d f8b1 07be
00000030: 8d74 48be 8db3 efbd 60bf 18bd 441f a3be
-0.22996634 -0.15463518 -0.073823676 0.05323459 -0.03252995 0.06600368 0.058416516 -0.21683976
-0.103271626 0.09589049 0.092212364 -0.13251483 -0.1957571 -0.117041685 -0.037291884 -0.3185979

model.2.weight f4 [32, 16, 5, 5]
00000000: eaa9 663d 955a 063d 346f d33c e1eb b13d
00000010: 30a7 a0ba 5498 66bd fe3f 363d ec45 79bd
00000020: 6cc4 d2bb 810e aa3c 0a91 863c 8597 d33d
00000030: 5abc 403d 831f 103c 8b41 e7ba 2595 323d
00000040: e5e2 3ebc ac65 9b3d e0bf 5dbc 642e 2c39
00000050: a714 5ebc def3 0bbd b78b 793b c38c 593d
00000060: ad9f 143d f867 053c 1120 bdbc 1c76 ec3c
00000070: c593 593d 0da2 9a3d 05a2 af3d 0b77 a03d
00000080: 0a2b 36bc 3459 1fbd d49c 0fbd e8d1 8e3d
00000090: 03f3 c0bc a47c 5d3d 2c0a 01bd 49dc f7bc
000000a0: 8c60 3f3d 3585 2d3b aa7d ee3d 7bb0 833d
000000b0: 192e a73d 2b87 f6bc 8a35 34bd d576 08bd
000000c0: 0a39 21bd f99b 3ebd 1b43 963c 7571 1dbc
000000d0: 8c3e 923d c46e c3bc 7e71 033b d678 ff3a
000000e0: afb9 89bd 5e57 6e3b 787e a1bb b072 c3bc
000000f0: 1bbe 80bd 39e7 cdbb 9ddb 2dbc 6433 083d
00000100: dc43 e83c 6666 c03c 2dbb d5bc 2364 07bd
00000110: fc59 b3bd 1cf1 b7bd 4302 3bbd 65ed b6bc
00000120: 429d fdbc 2076 5abd ebd9 e8bc 5939 5d3d
00000130: 515a 2f3d 0c79 813d 8c25 5e3d 50c0 d03c
00000140: d9a1 cdbc c3a6 dbbc 492f 693d 6435 833d
00000150: e81d 453c 64f7 943c bf12 4fbd eccf 57bd
00000160: caf9 bfbd d497 c8bd 7e6e 583c ddc4 a9bd
00000170: d2e2 54bd f9f6 36bd 6123 32bd 9a55 37bd
00000180: 0ab2 e03a cb6e 8a3d 41a4 4eba 660a 89bd
00000190: 6b91 fa3b 755a b43c 691e c03c 5399 013d
000001a0: 1beb 32bd eb15 a6bc af58 113c be1e afbc
000001b0: 0863 f23c 0590 123c 155d 64bd 1cf4 80bc
000001c0: f751 02bc fc8a a2bc 05b3 37bd eb2c aeba
000001d0: 4eeb 243c 9af4 993b 8e21 5dbc 89b7 9abc
000001e0: ffe6 5dbc 9e54 203d 53a9 2fbc dba2 393d
000001f0: 5a64 3bbd 3be8 1b3d f113 e3bc ccc7 943c
00000200: b858 a6bc 5df7 23bd 2bd5 8dbc cc4f c93c
00000210: ab43 05bc 0be1 17bd eec4 abbc e564 603c
00000220: 48c2 babc 3f49 97bd 26f8 02bd e539 0f3d
00000230: 454d 433c 7f20 7cbd 4447 84bd e624 a8bd
00000240: db55 ec3b e0f4 2bbd 3fae 02bd 8656 883a
00000250: 57b5 5c3c d199 f5bc 2eeb 35bd 7bd4 8a3b
00000260: c671 debc 6e3f 923d c892 29bd 7d6d 89bd
00000270: 191e 2d3d 1da5 ddbb aff9 163c 1bad f3bb
00000280: 7a45 42bc 4b14 3a3d c7d9 b83b c959 5a3d
00000290: ad1a 0a3c eed4 85bb 30bb 71bc 81d6 f73c
000002a0: d48e 833c 2832 803d 24d1 4f3d 3193 b4bb
000002b0: 9fc7 c63c 694e 0c3d e3b5 13bd 2c28 f93c
000002c0: ce1b 01bd a76c 173d e8b2 7b3d 661c 413c
000002d0: 0685 f83c b742 d6bc b8e6 25bd 2ea1 903c
000002e0: eb75 b93d c375 cbbc cab2 9d3d dae2 29bd
000002f0: 0e2e b1bc 18a9 9e3c 7fcf 62bd 501f 9d3d
00000300: 1079 bd3d fc77 bc3b 00de b83d a212 91bb
00000310: 104c bf3b f63a 973d 7b09 d23d b466 913c
00000320: ab6a 543d 6907 133d e57c 043d 2545 f03c
00000330: 353d 243d ecf9 08bd 7d03 9fbc a458 1dbc
00000340: 9688 be3d 2589 073e 4e21 2f3d 0ee8 143d
00000350: 9db1 f53d 1a18 6b3d 9735 873d 5bca b3bc
00000360: c7fa 0cbc 7998 4ebc 5146 e4bb b806 19bd
00000370: ce9c 68bd dc25 1b3d 959a ed3d bdbb ef3d
00000380: a42d e23d 545d 8dbd 96ee 35bd 9b29 0abd
00000390: d215 60bb 0806 4ebd 49f0 a7bd 26fa 55bd
000003a0: dd49 a4bd a7b6 31bd cd83 a63b 6853 b5bc
000003b0: 8411 063d 3baa e4bc 8704 2e3d 20d8 1ebd
000003c0: b619 12bc a0cb 553d fcc7 153d 5c56 49bb
000003d0: 14f3 9fbd c376 8ebc 27bb 533d 1101 cc3c
000003e0: 53e4 483d 7163 36bc 73cb 9abd 49d2 3bbd
000003f0: 8406 e7bc 66fe 613c ba20 57bd 7a1e 023c
0.056314386 0.03280123 0.025809862 0.086875685 -0.0012256857 -0.056297615 0.04449462 -0.0608577
-0.0064321067 0.02075887 0.016426582 0.103316344 0.047054626 0.0087965755 -0.0017643435 0.043599267
-0.011650776 0.07587752 -0.013534516 0.0001642048 -0.013554729 -0.034168117 0.0038077661 0.053112756
0.03628509 0.008142464 -0.02308658 0.028864913 0.05311944 0.0755044 0.08575825 0.07835206
-0.01111866 -0.03890343 -0.035061672 0.0697363 -0.023553377 0.054073945 -0.03150384 -0.030256407
0.046722934 0.0026477103 0.11645062 0.06430145 0.08163089 -0.03009375 -0.04399637 -0.033316452
-0.039361037 -0.046535466 0.018342545 -0.00960957 0.07140836 -0.023856528 0.002005666 0.0019490968
-0.067248695 0.0036367993 -0.0049284063 -0.023858398 -0.0628626 -0.0062836674 -0.010611442 0.033252135
0.02835267 0.023486327 -0.026090229 -0.033054482 -0.087573975 -0.08981535 -0.045656454 -0.022329995
-0.030958775 -0.05333531 -0.028424224 0.05400977 0.04281074 0.06321916 0.054235026 0.025482327
-0.025101589 -0.026812917 0.05692986 0.06406668 0.012031056 0.018184371 -0.050554987 -0.052688524
-0.09373815 -0.09794584 0.013209937 -0.08289502 -0.051974125 -0.044669125 -0.04349077 -0.04475937
0.0017142904 0.06759413 -0.0007882752 -0.066914365 0.0076467297 0.02201579 0.023452 0.031640362
-0.043681245 -0.020274123 0.0088712415 -0.021376964 0.029588237 0.00894547 -0.055752832 -0.0157414
-0.007954112 -0.019841664 -0.04484846 -0.0013288533 0.010065867 0.004698348 -0.01349677 -0.018886345
-0.013543843 0.039143197 -0.010721522 0.045321327 -0.04575 0.03806327 -0.02771947 0.018161677
-0.020305976 -0.040030826 -0.01731356 0.024574183 -0.008133809 -0.037079852 -0.020967927 0.01369593
-0.022797719 -0.073870175 -0.031974934 0.034967322 0.011920278 -0.06155443 -0.06458905 -0.08210163
0.007212383 -0.041981578 -0.031904455 0.0010401763 0.013470969 -0.029980572 -0.044413738 0.0042367554
-0.02715386 0.071410045 -0.041399747 -0.06710336 0.04226503 -0.006764068 0.009214803 -0.0074364073
-0.011857385 0.04542951 0.0056411955 0.053308282 0.008429212 -0.004084221 -0.014754102 0.03025365
0.016059317 0.062595665 0.05073656 -0.0055107106 0.024265109 0.034254465 -0.036062133 0.030414663
-0.031520657 0.036968853 0.061449915 0.011786556 0.030336868 -0.026154859 -0.040503234 0.017654981
0.09055694 -0.024836427 0.07700117 -0.041476108 -0.021628406 0.01936774 -0.055373665 0.07671988
0.092516065 0.005751608 0.09026718 -0.00442727 0.005837925 0.07384293 0.102557145 0.017749168
0.05185954 0.03589574 0.03234567 0.029329846 0.040097434 -0.03344147 -0.019410843 -0.009603653
0.093033955 0.1323591 0.04275637 0.036354117 0.11996768 0.057396032 0.06602018 -0.021947077
-0.008604712 -0.0126095945 -0.00696639 -0.037359923 -0.056790166 0.037877902 0.1160175 0.1170573
0.110438615 -0.069025666 -0.044416986 -0.033731084 -0.0034192693 -0.05029872 -0.08200128 -0.052240513
-0.08021901 -0.04338708 0.00508163 -0.022134498 0.032731548 -0.027913203 0.042484786 -0.03878033
-0.008917263 0.052196145 0.036567673 -0.003072164 -0.07810035 -0.017390614 0.051692154 0.024902852
0.049045872 -0.011132107 -0.07558336 -0.04585484 -0.02820135 0.0137935635 -0.052521445 0.0079418365

model.2.bias f4 [32]
00000000: bfe4 63bd 2757 f3bc 13f0 84bd 3022 43bd
00000010: 79c3 0dbc 37d5 09bd c7ae 883c 5277 ccbc
00000020: 3a6b a8bc f357 3f3c a39f 1bbd 8311 14bd
00000030: 8ae2 31bd 1183 c8bc 60fc c5bb 2917 6bbd
00000040: 1c24 85bc bbda ff3a 6c26 71bd 77ad 82bd
00000050: f0fc a438 dc41 5cbd 592d 6b3c 9716 a8bd
00000060: 6a90 c8bc 9cd0 9f3c b4b4 89bd 743f b5bc
00000070: 60d4 a43c 38b9 febc 7403 8fbd 51ca dbbb
-0.05563807 -0.029704643 -0.06491103 -0.047640026 -0.008652561 -0.033650603 0.016684903 -0.02495924
-0.020558942 0.011678684 -0.03799404 -0.036149513 -0.043428935 -0.02447656 -0.0060420483 -0.057395134
-0.01625257 0.0019520143 -0.058874533 -0.06380742 7.867243e-05 -0.053773746 0.014354073 -0.08207434
-0.024482924 0.019508652 -0.067239195 -0.022124983 0.0201208 -0.031094179 -0.069830805 -0.0067074676

model.5.weight f4 [120, 512]
00000000: fa7c 63bc 6324 cb3c 60a4 56bc 54d2 febc
00000010: 8c66 a73a 698a bbbc 9945 a4bb 3867 c43c
00000020: 0243 20bd e3c3 e3bb beb6 043d 6775 0cbd
00000030: 6072 32bc b4ab 92bc 6cdc be3b 6fc4 b6bc
00000040: 501f 263c b6a7 df3c 1a52 9c3c d4a1 553b
00000050: 1802 3c3d c5ec 0e3d 12c0 103d 810f 143d
00000060: f39e a6bc a465 163d 57d5 2cbd 8cfc 84bc
00000070: 5326 3fbd 898c bd3b f7a1 6dbd 5f92 c83c
00000080: 3ccb 8b3b 21af 613c a467 373c 069f cf3c
00000090: 4914 bfbc 1d17 cbbc 7236 cfbb 1dc5 94bb
000000a0: 8068 7b3c 7b06 85bc 0111 82bd 5aa6 01bd
000000b0: a9ea 923c 9797 53bd a6c7 d33c 1f83 08bc
000000c0: 1752 b0bc 57dd ac3c be0a ba3c ab4c 8f3c
000000d0: f333 2ebc 684f 753d 29d8 78bc 72ee 5a3d
000000e0: 8ebf 533d 125d ecbb 1f7d 9dbb c864 62bb
000000f0: 4270 08bc 24a1 653c 65c8 31bb ffd6 29bd
00000100: 4868 b83c 6a49 063c ff47 aa3c 1475 adba
00000110: 3f3c 413c 769e adbb 1c1f a43c 127e 0c3c
00000120: e5cc dd3c b42b 73bc 7375 b0bc 9455 3c3d
00000130: 8734 fe3c ff7c 943c dc6b c63c 5172 0a3d
00000140: 9997 f43c 4c2c 8e3c 4803 533b 9a3c 263d
00000150: ab90 0e3d 3daf 6abc 48e7 ff3c 522c 1bbd
00000160: 8e53 03bc 92f5 89bd 8a87 0c3c 88dd 2abd
00000170: 96fd 0abb b131 ab3c 8eba d9bc 5753 63bc
00000180: 9d24 323d 2da2 8d3b 696f 20bd bfab c2bc
00000190: a54e 8c3c 1eae 0ebd 1b25 0f3d 0476 05b7
000001a0: ed32 5d3c 2f93 8bbc 10ee 463d 31d4 493d
000001b0: b728 09bc 9109 c13c b8a8 4bbd e7f1 53bc
000001c0: 3147 55bd 9e4e 4f3d 2879 7f3c 084c b9bc
000001d0: c9bb 23bd 6ace e23c 116b acbc 0804 0b3d
000001e0: 6609 f5bc 5e88 cabc 03e6 a53c 1d05 ee3c
000001f0: 164b eebc fdd1 d53a 6f56 563c 40d9 02bd
00000200: 7d5f 0bbd ec72 453c a583 583d 1a16 f63c
00000210: 0bc1 4c3d da5a 3f3c 21bd a63c 1079 69bc
00000220: ccdc 283c cd73 6c3c ee21 12bd eb93 30b9
00000230: 9b96 8abc b9ed 49bd 12d5 0fbd 352c 29bd
00000240: 5483 72ba 6b1e d8bc c748 ab3b 4e16 223d
00000250: 3447 6cbb c9fa ef3c 5c02 053d a706 3e3d
00000260: a9d0 ac3c 11db 363c de1f 0a3c 685c 283d
00000270: 868e 5d3a 070b 1d3c 39be c13c 39c7 bebc
00000280: bff9 c6bc ab75 433d 15a7 0a3b f359 d2bc
00000290: f2d8 b33a 4aea 3e3a e03f a7bc 335f b6bc
000002a0: 0f66 433d fb56 34bc 17e8 e7bb efca febc
000002b0: d71f f73b ba9b 463d 559c a4bc 2e82 f1bc
000002c0: 0497 073d b26e 85bc 62b5 733d d283 113d
000002d0: d2df ee3c f73c 42bd 20a7 863c 2108 96bd
000002e0: 2597 91bc e8cb a83b edeb 483b cc18 2dbd
000002f0: a44e aebc 58fa 053d 9941 7d3d fcca 8a3b
00000300: 1a82 f3bc 13be 93bb e432 533d f289 483d
00000310: 7849 773c bccd a9bc 8c4b cf3b d486 1bbd
00000320: 4e07 65bc 13d7 163c 5664 37bd 7bb4 71bc
00000330: bfb9 583b efb6 f6bc 8910 043d f05d 153c
00000340: 03c6 503c fd3c 9c3b 1d7a 7dbc 4a74 1ebd
00000350: 9c0a 2dbd 7d93 403d 6fa5 e0b9 3fa0 0bbb
00000360: 7f00 8fbc ff0c cfbc d897 8b3c d33b e8ba
00000370: ee56 44bc fe69 1cbc 5df8 533c 2dfc 12bd
00000380: dfe5 59bc 51a3 8d3b 93a6 e03c ff77 c3bb
00000390: 58fa 71ba 01d9 0abd c5b3 d6bb af9a e33c
000003a0: 96a0 44bd a60f 2ebd b3e0 70bc 094d 213c
000003b0: 4e4a e93c 93a6 16bd 453d 00bd 71ed 3b3c
000003c0: 62bf 32bd a3ef 193d c0c0 a43c 4e2a 23bc
000003d0: 1e5d 6b3c 5ba4 d73c d4ff c0bb 4315 1abd
000003e0: 353e 063d 1b49 69bb 2497 b73c b62e 843c
000003f0: 4ec8 55bd 4a65 573c 6431 1e3d b75e e43c
-0.013884777 0.024797624 -0.0131007135 -0.031106152 0.001277165 -0.022893148 -0.0050131795 0.023975
-0.039126404 -0.0069508418 0.03240084 -0.03429165 -0.010891527 -0.01790414 0.005824616 -0.022310464
0.010139301 0.02730165 0.019082118 0.0032597678 0.045900434 0.03489377 0.035339423 0.0361476
-0.020339465 0.036718026 -0.042195644 -0.016233705 -0.04666741 0.0057845754 -0.05801579 0.024483858
0.004266171 0.013774664 0.011194143 0.025344383 -0.023325102 -0.024791295 -0.006323629 -0.0045400993
0.015344739 -0.016238442 -0.063508995 -0.031652786 0.01793416 -0.05165824 0.025852036 -0.008332043
-0.021523518 0.021101637 0.0227102 0.017492613 -0.010632503 0.05989018 -0.015188255 0.053450055
0.051696353 -0.0072132433 -0.0048061754 -0.0034544934 -0.008327546 0.01401547 -0.00271275 -0.041464802
0.022510663 0.008196214 0.020786284 -0.0013233745 0.011794149 -0.005298431 0.020034365 0.008574979
0.02707524 -0.014841963 -0.02154038 0.04598005 0.031030906 0.018126009 0.024221353 0.033800427
0.029857444 0.017355107 0.0032198 0.040585138 0.034805935 -0.014324007 0.031238213 -0.037884064
-0.008015526 -0.06736292 0.008577237 -0.041715175 -0.0021208278 0.020897718 -0.026578214 -0.01387485
0.04349195 0.0043223114 -0.03916875 -0.023763536 0.017127344 -0.03483402 0.034947496 -7.954895e-06
0.013500911 -0.017037956 0.048566878 0.049274627 -0.008371524 0.023564132 -0.04972145 -0.012936092
-0.052069847 0.050612085 0.015592851 -0.022619262 -0.039974008 0.027686317 -0.021047147 0.03393939
-0.029911708 -0.024723228 0.02025128 0.029055173 -0.029088538 0.0016313192 0.013082131 -0.031945467
-0.03402661 0.012051325 0.05285992 0.030039836 0.049988788 0.011679376 0.020353856 -0.014250055
0.010306548 0.014431906 -0.03567689 -0.00016839772 -0.016917517 -0.049298976 -0.03511531 -0.041301925
-0.0009251137 -0.026381692 0.0052271816 0.039572053 -0.0036053183 0.029294388 0.032472953 0.046393063
0.02109559 0.011160628 0.008430449 0.04110375 0.00084517186 0.009585149 0.023650276 -0.023288356
-0.02428901 0.04771964 0.0021156718 -0.025677657 0.0013721271 0.00072828366 -0.0204162 -0.022262191
0.047704753 -0.011007066 -0.007077228 -0.031102626 0.0075416374 0.048488356 -0.020094076 -0.02948102
0.033103004 -0.016288135 0.059499152 0.035526104 0.02915946 -0.04742142 0.016437113 -0.07325769
-0.017772267 0.0051512606 0.00306582 -0.042259976 -0.021277733 0.03270945 0.061830137 0.0042356234
-0.029725123 -0.0045087426 0.051562205 0.04895968 0.0150932 -0.020727985 0.0063261446 -0.03797038
-0.013978792 0.009206551 -0.044773422 -0.014752503 0.0033069698 -0.030116526 0.03224233 0.009116635
0.012742522 0.0047680126 -0.015471009 -0.03868512 -0.042246446 0.047015656 -0.00042847867 -0.002130523
-0.017456291 -0.025274752 0.017040178 -0.0017718024 -0.011983616 -0.009546755 0.012937632 -0.035885025
-0.013299434 0.0043224473 0.027423179 -0.0059652324 -0.00092307245 -0.033898357 -0.006552192 0.02778372
-0.04800471 -0.042495392 -0.01470201 0.009845027 0.028477814 -0.03677995 -0.03130843 0.011470185
-0.043639548 0.03758205 0.020111442 -0.009958817 0.014365463 0.026323488 -0.005889872 -0.037617933
0.03277417 -0.0035596553 0.022410937 0.016135555 -0.05219298 0.013146708 0.03862132 0.027877195

model.5.bias f4 [120]
00000000: ac6e dcbc f49f 0c3d 8ac4 1d3c 1dbe 8f3c
00000010: 37fa 1ebd c0d9 05bd 8bf5 84bc b1b4 c8bc
00000020: c5f9 d93c 8ddb 483d 9be8 4b3c 5d7b c8bc
00000030: 187c b43c 5a27 1fbd b679 ca3c 9e5f 053d
00000040: 77ef 40bb c54b a6bc add0 df3c 5df1 2dbc
00000050: f191 45bd bb4b b1bc 673a adbc ca9a c3bc
00000060: e34a 0bbd 6185 d7bb 766e 033d a8ad a5bc
00000070: 3575 3dbd 1df0 a83c ce96 d13c 5e1e ed3b
00000080: b7d0 a1bc 82f4 433b 65c1 a43c 5d9f f1bc
00000090: 314f 06bd f3c1 8f3c 14a8 8ebc 2016 ba3c
000000a0: e3a1 99bc b907 b03c f0b4 133d 37d2 143d
000000b0: 5c03 b23a 8cc3 6b3d 58c5 01bd a20e 363c
000000c0: d63e 9fbc 9e98 d53c f9e8 963c ac90 c93c
000000d0: 5408 01bc 09fa d2bc a3d6 e03c 671c df3c
000000e0: 659d c3bc a1ee f0bb 44ab 7dbc 1fc5 e03b
000000f0: ed06 8b3c 0e21 e83c dd4d 0c3d 8f29 b8bc
00000100: df22 5f3c 5ae2 07bd 0c1d b1bb bb3e 72ba
00000110: 67eb 3f3d c96b d1bc b430 c43c d106 123d
00000120: 3f66 2d3d fae4 acbc e7d3 2cbd 20d6 0a3d
00000130: a35d 8e3b dc06 06bd 509a f93c 3bf4 20bc
00000140: eec1 f63a c437 0fba b7b5 e6bc 4fc7 abbb
00000150: 6561 0c3d 18ac 16bc 50e7 263c eede 003d
00000160: a512 53bc 343c 47bb 6533 11bc 718a 853c
00000170: 5fc2 1abd 78fe b73c bc17 a93c ce12 1dbd
00000180: cb8a bbbc 8a7c 77bc 5892 01bc 280b c53c
00000190: 105b e8bc 937e a93c 3a19 ab3b 6fe4 a73c
000001a0: 32f9 f0bc b92d 0cbc 8f41 efbb ff3a 46bd
000001b0: 7eda 0fbd 077c d8bb 8d69 fc3c e1bb 02bd
000001c0: 548a d2bc d4f0 1b3d 87b3 363d 4c6b 49bd
000001d0: 1032 ef3c 552d 5e3c 2ccc 343a 3a59 2c3d
-0.026908241 0.03433223 0.009629378 0.017546708 -0.038812842 -0.032678366 -0.016230365 -0.024500223
0.026608357 0.049037505 0.012445594 -0.024472887 0.022031829 -0.038855888 0.02471624 0.03256189
-0.0029439607 -0.020299802 0.027321184 -0.0106166275 -0.048234884 -0.021642556 -0.021146012 -0.02387752
-0.034006964 -0.0065771793 0.032087766 -0.020224407 -0.046254355 0.020622307 0.025584605 0.007236286
-0.019752843 0.0029900377 0.020111749 -0.029494936 -0.032790367 0.017548537 -0.01741413 0.022715628
-0.018753951 0.021488057 0.036061227 0.03633329 0.0013581323 0.057559535 -0.031682342 0.011111887
-0.019439142 0.02607375 0.018421637 0.024605118 -0.007875521 -0.025753992 0.027446097 0.027235223
-0.023878762 -0.0073526655 -0.015482727 0.006859436 0.016971076 0.028336074 0.034253944 -0.022480754
0.013619154 -0.03317485 -0.005405074 -0.0009240915 0.046855357 -0.025564091 0.023949005 0.035651032
0.042333838 -0.021105278 -0.042194273 0.03389561 0.0043446585 -0.032721385 0.03046909 -0.009823854
0.0018826106 -0.0005463327 -0.02816282 -0.0052422653 0.03427257 -0.009196304 0.010186985 0.031462602
-0.012882863 -0.0030400874 -0.008862351 0.016301366 -0.037783023 0.022460207 0.0206412 -0.03834801
-0.02289333 -0.015105376 -0.007908426 0.024053171 -0.028363734 0.020690238 0.005221513 0.020494668
-0.0294157 -0.008555823 -0.0073015164 -0.048396107 -0.03512048 -0.006606582 0.03081205 -0.031917457
-0.025700726 0.03807147 0.044604804 -0.049174592 0.029198676 0.013560613 0.0006896879 0.04207728

model.6.weight f4 [84, 120]
00000000: 23b3 77bd 4e1e 68bd 938d eeba 4ed7 d73c
00000010: 1eb9 553c 00a9 1a3d 3a82 973c a6dd 9f3d
00000020: 17bd 273d e31c d73c 4dc5 8d3d fa73 283c
00000030: d2c8 cebc 9e41 b83d f9c7 b2bd 7a47 eabb
00000040: cb9b d93d e49d 6d3d 69be a6bd 022d 1cbb
00000050: 8eb8 b13d b27e b8bc a0db b5bd 5079 153d
00000060: 1c9b 2e3d 586f bf3d 0d80 d93c 7f1a bf3d
00000070: a170 2dbd 8008 66bd 2d5c 54bd ee14 293d
00000080: e78e 31bd ea5d 36bd a57e e5bc bef6 8bbc
00000090: 94b0 53bc 02ac 913d eb19 d4bc f068 75bd
000000a0: a3ac 983c c0c4 f13c 816a 493d f7f9 1a3d
000000b0: 36e8 8c3b c111 643d b248 9cbd fd14 d03d
000000c0: b70e 8dbb d2c3 ac3d 288b 093e 8b4c 2abd
000000d0: 41cd 353c cdbb d6bc 5910 a8bd edc6 e7bc
000000e0: a710 8fbd ea5d 553b 47f6 2b3d 1a52 f7bb
000000f0: a22f 893d 7ed1 debd 67c5 0ebd 8ca8 8cb9
00000100: 4418 a7bc 6fb6 05bd ce80 853d 6100 3b3d
00000110: ece6 083d 83fb 993b baaf 94bd 2e49 3a3b
00000120: c642 3cbd a89f 403c e372 fb3c 08e7 07bd
00000130: 0fb0 3bbc f862 90bd abd8 1fbd 6bfd 833d
00000140: 85ca 693d 25d9 9e3d aed8 b43d 01e8 42bd
00000150: 50ab 473d f889 5a3d a6fc 8e3c fe71 b23c
00000160: 9318 963c 5289 b1bd 52f1 b13d 8b0f 82bc
00000170: 32c5 eebc d4a9 cc3c bb12 7dbd 581f 113d
00000180: a744 73bc 2b58 d7bc a89e bd3d 5248 30bd
00000190: a0e3 873d abdd 373d faa9 8dbd 0a71 a7bc
000001a0: ea62 8d3d f51c b9bd 157b 9dbc 7b07 b13d
000001b0: c687 af3c c1cf be3c f3a4 bdbd 6c4e 66bd
000001c0: 4c59 fe3c 7da4 c83c 4c12 483d 2256 273d
000001d0: eb52 4fbd 3ea4 a1bc fff7 a83d ba52 dc3d
000001e0: 6d9b 983d 9bf7 95bd 9beb eabc 50cf 793b
000001f0: 4a33 abbc 03c5 7fbb b2dd 79bc 1e3e 67bc
00000200: 793d 5a3c 5bdc 763d 8c19 963c 1328 843c
00000210: 9a01 80bb d447 953d 46a1 113d 9c55 213d
00000220: 0f68 50bd d3f2 39bd 6318 98bd ce32 fd3c
00000230: 319c 4e3d d550 603d 55c3 60bd 3605 6ebd
00000240: 7529 0ebc e708 d83c 1d64 6e3d a87d 6f3d
00000250: a820 683d a5ec 2e3d 0812 46bd edf2 a7bd
00000260: 71cc f1bc 2047 bf3d ff87 1d3d bc7d 91bd
00000270: d5d4 92bd c1eb c3bc 061c 4a3d c258 27bd
00000280: 1c14 ac3d f141 433c 09b4 f83c 5bac 7fbd
00000290: 5019 9fbd 8133 97bc d7e6 23bd fd11 773d
000002a0: bb21 afbc 63ac 52bd f546 853d 1392 8c3d
000002b0: 73a4 a73d f860 47bc 6233 a5bd 8ade b1bc
000002c0: 5b72 0c3d 595c fa3a 3540 cfbd efae d93a
000002d0: 1c35 503c 4563 6f3c ecce 36bd 9c2f 923d
000002e0: 4b08 8d3d 5272 9c3d cc08 553d 2d46 fe3c
000002f0: c7c5 303d 2019 b7bd b799 003d 849a 1d3c
00000300: aebf 083d 776c 27bd e385 42bd 710b 19bd
00000310: 9d96 03bd 52ff 603d d29a 313d bc1a 163d
00000320: 02df 06ba f0cb e2bc e6eb ad3d eaf3 8fbc
00000330: 33af 4b3d dc3e 123d 3ebb acbd 922d 17bd
00000340: 580a 703d d0f9 f3bc a732 af3a 9288 fa3c
00000350: 1a77 29bd 030b 413c 4c6f 76bc de84 d3bb
00000360: 4e6c a3bd 9894 a1bd 7506 d0bd 13c2 6ebd
00000370: 2b45 9cbd c869 853d 563b e23c e3f5 2a3d
00000380: f664 593d 5f96 c03d 7af3 fbbc e348 dd3c
00000390: 75ea 96bd be0f 82bd cf43 84bd e8de 333d
000003a0: 5235 f23c 43a6 cfbc eb35 45bd c62f b43c
000003b0: 8fa4 113d 4109 983b fa38 833d 2ff5 23bd
000003c0: 72f2 65bd 62d0 ce3c 4f42 ad3d 201b 93bb
000003d0: bc00 473c 2348 42bd f6dd 4ebc a0e1 c0bd
000003e0: 3aca b3bb e3f5 243d 31e8 73bc 4499 893c
000003f0: ef87 b6bd 98ff 903d da6f 903c b39f e4bc
-0.060473572 -0.056669526 -0.0018200151 0.026347782 0.013044624 0.037758827 0.018494714 0.07805948
0.040951815 0.026258891 0.06922398 0.010281557 -0.025242243 0.089968905 -0.08729548 -0.007149634
0.10625418 0.058011904 -0.081417866 -0.0023830538 0.08677779 -0.02252135 -0.08879781 0.036492646
0.042628393 0.09347409 0.026550317 0.093312256 -0.04234374 -0.05616045 -0.05184572 0.041279726
-0.043349173 -0.044523157 -0.02801449 -0.01708543 -0.0129205175 0.07112886 -0.025891265 -0.05991453
0.018637007 0.029512763 0.049173836 0.03783604 0.0043001426 0.055680994 -0.07631053 0.10160253
-0.0043047327 0.08435787 0.1343199 -0.041576903 0.0110963 -0.026212597 -0.08206243 -0.028293097
-0.06985598 0.0032557198 0.041982915 -0.007547629 0.06698538 -0.10879801 -0.034856226 -0.00026828458
-0.020397313 -0.032644685 0.06518708 0.04565466 0.03342335 0.004699172 -0.0726008 0.0028424966
-0.045962118 0.011756815 0.03069443 -0.033179313 -0.01145555 -0.07050127 -0.03902499 0.0644482
0.057077903 0.07756261 0.08830391 -0.047584537 0.04874736 0.053354234 0.017454457 0.021782871
0.018322265 -0.0866877 0.08688606 -0.015876552 -0.029146764 0.024983324 -0.06178544 0.035430282
-0.014847911 -0.026287159 0.09258777 -0.04303772 0.06635213 0.044889133 -0.06917186 -0.020439643
0.06903632 -0.09038726 -0.01922373 0.08644005 0.021427047 0.023292424 -0.09259977 -0.056227133
0.03104844 0.024492497 0.048845574 0.040853627 -0.050616186 -0.019731637 0.082504265 0.10757966
0.0745152 -0.073226176 -0.028676799 0.0038117953 -0.02089848 -0.003902734 -0.01525061 -0.014113931
0.01332032 0.06026874 0.018322729 0.01613239 -0.003906441 0.07289091 0.035554193 0.039388284
-0.050880488 -0.04539759 -0.074265264 0.030908015 0.050441924 0.054764587 -0.054873783 -0.05811044
-0.008676876 0.026371432 0.058200944 0.058469445 0.05667177 0.04270615 -0.04835704 -0.08200631
-0.02951643 0.09339738 0.038459774 -0.0710406 -0.07169501 -0.023916127 0.04934313 -0.04085613
0.08402273 0.011917577 0.030359285 -0.06242023 -0.077685 -0.018457176 -0.040015068 0.06031989
-0.021378389 -0.051433932 0.065076746 0.06863799 0.08185663 -0.012169115 -0.08066441 -0.02171256
0.034288745 0.0019101008 -0.101196684 0.001660792 0.012707975 0.01461107 -0.04463093 0.07137987
0.068863474 0.07638992 0.052010342 0.031039322 0.043157365 -0.08940339 0.031396594 0.009619359
0.033385925 -0.040874925 -0.047490966 -0.037364427 -0.032126058 0.054930992 0.04336054 0.03664659
-0.0005144925 -0.027685136 0.0849226 -0.017572362 0.04972763 0.03570448 -0.08434151 -0.036908694
0.058603615 -0.029782206 0.0013366536 0.0305827 -0.04137335 0.011782411 -0.015041184 -0.006455048
-0.07979642 -0.0788967 -0.101574816 -0.058290552 -0.0763038 0.06514317 0.027616184 0.041738402
0.0530748 0.09403681 -0.030755747 0.027012294 -0.07368938 -0.06350659 -0.06458246 0.04391375
0.02956644 -0.025347834 -0.048147123 0.021995436 0.035557326 0.004639775 0.06407352 -0.040028747
-0.056139417 0.025245849 0.08459913 -0.0044893175 0.012146171 -0.047432076 -0.012626162 -0.094180346
-0.005486754 0.04027356 -0.014886902 0.016796716 -0.08912646 0.07080001 0.01763146 -0.027908182

model.6.bias f4 [84]
00000000: c9db 193d 7c45 45bd e167 ae3d f566 e4bb
00000010: 4804 88bd a62a 82bc f0f2 3dbd e07e 523d
00000020: 9ddf ebba 8cd9 81bc 6a07 953d 424a 9e3c
00000030: 5b2b 093d e470 973c 10b9 21bc 6cec 8ebc
00000040: d120 a53c 0c35 5bbd 8862 9d3d 0a86 343d
00000050: 6561 353d 717e 7abd 2cad b3bd 1741 393d
00000060: d849 a6bd d70a 573d 4170 21bd 805e e53c
00000070: 1459 d4bc 0b56 ad3d 80e1 0dbd d9d1 9b3d
00000080: 2d10 18bc cef6 3fbd e49a 293c 4c93 fabc
00000090: 3e4e 483d ace6 683c 51b3 313d 7e61 0fbc
000000a0: 8515 8abd 4df8 45bd 82c8 8d3d d24c 183d
000000b0: 9d16 8abd 8ea0 963d 532e 6c3d a34e d93c
000000c0: e3e5 403d a7bb 1b3c 1833 393c ac53 dfbb
000000d0: 1785 8cbd 848f 59bd 27eb a1bd 4a50 bd3b
000000e0: e79f c1bc 2cbf 943d 2770 5b3d 5dcb c7bd
000000f0: 786b 3e3d bb77 8fbc d732 b03d c564 d03a
00000100: f3bc 47bd 1190 a03c 2acc 5c3a 2c4c 8a3c
00000110: 561c 4ebd bcc4 373a d044 6e3d 3621 ef3c
00000120: 39d3 6c39 b8c1 8fbc bd7f 553d 6ba7 683d
00000130: 0e1e a9bd 7909 8abc 1827 afbd 6f64 8d3d
00000140: d1ff aebd 1580 a43d 1f5b 68bd 0ab5 a63c
0.03756312 -0.04816197 0.08515907 -0.0069702812 -0.066414416 -0.015889477 -0.04637426 0.05139053
-0.0017995719 -0.015850805 0.07276805 0.019322518 0.033488613 0.018486448 -0.0098707825 -0.01744672
0.02015725 -0.053517386 0.07684809 0.044073142 0.044282336 -0.06115574 -0.08773264 0.04522809
-0.08119553 0.052500572 -0.039413694 0.027999163 -0.025921382 0.08463677 -0.03463888 0.07608385
-0.0092812 -0.04686623 0.01035187 -0.030587815 0.048902743 0.014215153 0.0433839 -0.008751271
-0.06742386 -0.0483325 0.069230095 0.037182637 -0.067425944 0.07354842 0.057661366 0.026526755
0.047094237 0.009505189 0.011303686 -0.0068153944 -0.068613224 -0.053115383 -0.0790618 0.0057773935
-0.023635818 0.07263026 0.053573754 -0.09755585 0.04648921 -0.017513147 0.08603447 0.0015899172
-0.04876418 0.019599946 0.0008422757 0.016882025 -0.050319992 0.00070102117 0.058171093 0.02919064
0.000225854 -0.017548427 0.052123774 0.056800287 -0.082576856 -0.01685022 -0.085523784 0.06903922
-0.08544887 0.08032242 -0.056727525 0.020349998

model.7.weight f4 [10, 84]
00000000: 228d 003e a50f e0bc 86fd c1bd ecb1 4b3e
00000010: 8339 933c f105 2bbe 97d6 a73c a9e9 893e
00000020: 46ef afbd 5143 4b3d e902 f93d a0c8 df3d
00000030: 9ce5 6ebd 2063 a0bc 39fb 27be b50d 05bc
00000040: c71f 513e 172c 9d3b fd72 09be 1a58 58be
00000050: e917 9f3d e43b 58bc 2af6 e2bc 83da 19be
00000060: 77c9 403e d9a6 663c 6104 373e 152e 263e
00000070: 73fd f0bd 1d65 2d3d 0861 3e3e 829e f33d
00000080: 5a6a d0bb 9c60 d1bd 7939 a23b df88 0dbe
00000090: b66b 5c3b 3c35 3ebe 382f 07bd 41a3 12be
000000a0: 4336 14bc 91e5 543a f166 e63c 28ed a83d
000000b0: e0d6 6d3d e36f eb3c 007e 04be bb0f 81be
000000c0: 9ca1 bc3c a3a2 3fbe c171 3d3e 1170 673e
000000d0: bdb3 99bd 4eb4 0f3e 2a22 f13a 3e34 10bd
000000e0: 9755 1e3e e57e 883d 1001 dfbd 1087 cabc
000000f0: 3119 093e 55a8 c03d 0c14 113e ff98 ddbd
00000100: ce33 0abe a0ff f3bb 272a d83d f9cf 50bd
00000110: 43ba 1fbe 62ae e83d ed09 27bd 9e10 e2bd
00000120: d648 06be 87b8 113e c2ba ef3d 10c7 b0bd
00000130: 8309 18bd d1e0 393d 00b6 e1bd b250 653c
00000140: 8bae 2a3d 9489 923d 6f3b efbc 3699 c43d
00000150: b54a cebd 2e31 0cbe d8dc 2fbe 82df 1ebd
00000160: e57f 503d c3c2 5ebc cbdc 653e 511d 0b3e
00000170: 1cbc 2bbe 4403 cbbd 476f 6f3e 7afa e6bd
00000180: deca d8bd a9ae 35be 71b0 3b3e e105 03be
00000190: ecdd e5bd 1c1b 89bc 0da7 fd3d c308 bb3d
000001a0: 8537 9a3c 5bfe 24bd b41b 023e d4e9 1b3e
000001b0: f31b 21be ed3c 7d3d 0c15 193e 262c 933c
000001c0: 8e34 0a3e 384b 63be a93e 5f3d c709 24be
000001d0: 727f 01bd 1d62 02be b31d ed3d bbd6 4dbe
000001e0: cf09 7d3d f4af 373e a397 423e da0c 693e
000001f0: 3b6d ffbd 3d21 8e3b 1ed2 01be 133d 0dbe
00000200: 1b6f 8a3d 7c12 97bd b021 a2bd 545a b53d
00000210: 7762 843d f797 45bd dbbe 283d 4858 993d
00000220: 43c9 44be 0ff7 abbc 8045 0b3e 500f e33d
00000230: a282 03bd 393f 0cbd 2f0c 71bd 01e4 d03d
00000240: 708e b1bd 67d6 6c3c 9736 f1bb eeca c33c
00000250: 409c 4dbd 8f87 bb3d f33e d03d 2e84 cabd
00000260: 017d 4b3e 4a5c 2bbd 2f69 bebd 5fed 9a3d
00000270: b67d 4e3d 0be3 f53d 8db0 313d b741 0d3d
00000280: 54b6 12bd d7f9 2ebd c5c5 0c3e 97ee 8d3d
00000290: 45b6 f73c 9e21 ca3d a247 d5bd 56fa 0b3c
000002a0: 53bb a43d 6b0f 863d 2478 c3bd f0d8 7e3c
000002b0: 294b 4fbc 1bbc 1dbd b98c cb3d 05e4 e93d
000002c0: 4ec2 bebd c57a c33d 6c29 e13b e59b 93bc
000002d0: c3fa 6fbd f927 7ebe 31f5 4fbe 63a0 113e
000002e0: 1a47 123c 1bc4 bdbc d3c2 cdbc 2192 903d
000002f0: a316 bf3d d85f c1bd 6416 563c 3339 6f3c
00000300: c31c e2bc ea5d 043d 4f85 be3d 2bdc 563e
00000310: 60d4 26be 0546 74be 1222 7ebc e28e 57bd
00000320: d338 50be ce67 45bc d263 6cbd 08b6 9fbc
00000330: 1490 12bc 4af8 85bd 0fd1 eebd ff00 2cbd
00000340: 309b d33c 9932 49be 0aeb 5f3d 7e09 45bd
00000350: 78af 22be a709 aabd a684 503d b470 483d
00000360: 5509 0ebe c1e1 d73c 9388 3cbd bb0b b13d
00000370: 8a38 173e 7ef6 af3d 2474 0abe f81e ec3d
00000380: ecb9 cf3d eae5 123e 7978 083d 0d7d e2bd
00000390: 4c01 1fbe 8ec8 823d 436a 0b3d dcab c93d
000003a0: 8610 493e 488a 30bd daf1 073e db50 ab3c
000003b0: b8d0 0a3e 8894 713d 7e7b f13d 1efa 8e3d
000003c0: 8469 c3bd 7fd9 82bd 16cf 9fbc 4acf c8bd
000003d0: 2504 04be 20bd f5bd a972 d0bd f5d7 10be
000003e0: e79c e8bd ae6b 0abd 81a3 a83d 5b9d a53d
000003f0: d906 53bd 0512 f8bc bf24 683d e415 70bd
0.12553838 -0.02735121 -0.09472184 0.1989209 0.01797176 -0.16701485 0.020488067 0.2693608
-0.0859056 0.049624745 0.12158758 0.10926938 -0.05832444 -0.019578516 -0.16404428 -0.008120944
0.20422278 0.0047965157 -0.13422771 -0.21127358 0.077682324 -0.013197873 -0.02770527 -0.15024762
0.18826853 0.0140778655 0.17872764 0.16228516 -0.117670916 0.042332757 0.18591702 0.11895467
-0.0063603343 -0.10223505 0.004950699 -0.13821743 0.0033633537 -0.18574995 -0.033004016 -0.14320089
-0.00904614 0.0008121366 0.028125258 0.08248359 0.05806625 0.028739875 -0.1293869 -0.25207314
0.02302628 -0.18714385 0.18500425 0.22601344 -0.075049855 0.14033625 0.0018397023 -0.035206072
0.15462337 0.06664828 -0.108888745 -0.024722606 0.13388516 0.09407107 0.14167804 -0.10820197
-0.13496324 -0.0074462444 0.10554915 -0.05097959 -0.15598397 0.11361386 -0.04078095 -0.11038326
-0.13113722 0.14230548 0.11705543 -0.08631718 -0.037118446 0.045380417 -0.11021042 0.01399629
0.041670363 0.07155147 -0.029203145 0.09599535 -0.10072843 -0.13690636 -0.17174089 -0.038787372
0.05090322 -0.0135962395 0.22447507 0.13585402 -0.16770977 -0.09912732 0.23382293 -0.11278243
-0.10585569 -0.17742409 0.18329026 -0.12795211 -0.11223969 -0.01673656 0.12385378 0.091325305
0.018825302 -0.040281635 0.1270588 0.15225917 -0.15733318 0.06182568 0.14949435 0.017965388
0.1349661 -0.22196662 0.054503117 -0.16019355 -0.031615682 -0.1273274 0.1157793 -0.20101444
0.061776932 0.17938215 0.19003157 0.22758809 -0.12472006 0.0043374584 -0.1267781 -0.13792829
0.06759473 -0.073765725 -0.07916582 0.08855119 0.06464093 -0.048240628 0.04119764 0.074875414
-0.192174 -0.02099183 0.13600731 0.11086905 -0.032107003 -0.03423998 -0.05884951 0.10199738
-0.08669746 0.014455414 -0.007361244 0.023900475 -0.05019784 0.09156715 0.101682566 -0.098884925
0.19871904 -0.04183606 -0.09297406 0.07564806 0.050412856 0.12006196 0.043381263 0.0344865
-0.035818413 -0.042718735 0.13747318 0.06930273 0.03023828 0.09869693 -0.104140535 0.008543571
0.08043542 0.065459095 -0.095443994 0.015554652 -0.012652197 -0.03850947 0.0993895 0.114204444
-0.093144044 0.09544901 0.006871393 -0.018018672 -0.058588754 -0.24819936 -0.20308377 0.14221339
0.008928085 -0.0231648 -0.025117313 0.07059122 0.093304895 -0.09442109 0.013066862 0.01460104
-0.027601605 0.032316126 0.0930277 0.20982425 -0.16291952 -0.23854835 -0.015511053 -0.052626498
-0.20334177 -0.012048675 -0.057712384 -0.019495979 -0.008945484 -0.06541498 -0.116609685 -0.041993137
0.025830835 -0.19648208 0.05466751 -0.048104756 -0.15887249 -0.08302622 0.050907753 0.048935607
-0.13870747 0.026352765 -0.046028685 0.086448155 0.14767662 0.085919365 -0.13520867 0.11529344
0.10142884 0.14345518 0.033318017 -0.11059008 -0.15527838 0.06385909 0.034036886 0.09847233
0.1963521 -0.043100625 0.13275853 0.020912578 0.13556182 0.05897954 0.117911324 0.069813
-0.0954161 -0.0638914 -0.019507926 -0.09805162 -0.12892206 -0.11998963 -0.1017812 -0.14144881
-0.11358052 -0.033794098 0.08234311 0.08086654 -0.051520202 -0.03028203 0.05667567 -0.058614627

model.7.bias f4 [10]
00000000: 3c9e 543d 3cb4 b0bd 97bc cc3d a1e4 ab3c
00000010: 0b9f 33bd 1f0d c6bc ca4f 8bbd 15a7 9fbd
00000020: 9aaf 1f3e 39a5 13be
0.051908717 -0.08628127 0.09996908 0.020983042 -0.043852847 -0.024176179 -0.06802328 -0.0779554
0.1559433 -0.14418496
